…
physical_device_desc: "device: 0, name: GeForce GTX 1080 Ti, pci bus id: 0000:83:00.0, compute capability: 6.1"
]
(array([0, 1, 2, 3, 4, 5, 6, 7, 8, 9], dtype=uint8), array([5923, 6742, 5958, 6131, 5842, 5421, 5918, 6265, 5851, 5949]))
(array([0, 1, 2, 3, 4, 5, 6, 7, 8], dtype=uint8), array([6742, 5958, 6131, 5842, 5421, 5918, 6265, 5851, 5949]))
x_train shape: (54077, 28, 28, 1)
54077 train samples
9020 test samples
_________________________________________________________________
Layer (type)                 Output Shape              Param #   
=================================================================
conv2d_1 (Conv2D)            (None, 26, 26, 32)        320       
_________________________________________________________________
conv2d_2 (Conv2D)            (None, 24, 24, 64)        18496     
_________________________________________________________________
max_pooling2d_1 (MaxPooling2 (None, 12, 12, 64)        0         
_________________________________________________________________
dropout_1 (Dropout)          (None, 12, 12, 64)        0         
_________________________________________________________________
flatten_1 (Flatten)          (None, 9216)              0         
_________________________________________________________________
dense_1 (Dense)              (None, 128)               1179776   
_________________________________________________________________
dropout_2 (Dropout)          (None, 128)               0         
_________________________________________________________________
dense_2 (Dense)              (None, 9)                 1161      
=================================================================
Total params: 1,199,753
Trainable params: 1,199,753
Non-trainable params: 0
_________________________________________________________________
None
0
(array([0, 1, 2, 3, 4, 5, 6, 7, 8, 9], dtype=uint8), array([5923, 6742, 5958, 6131, 5842, 5421, 5918, 6265, 5851, 5949]))
(array([0, 1, 2, 3, 4, 5, 6, 7, 8], dtype=uint8), array([6742, 5958, 6131, 5842, 5421, 5918, 6265, 5851, 5949]))
…
